wtlive/app/src/main/assets/wtit-tree-cnn-448-0.743.tflite (tflite, 735292 bytes, 14 tensors)

batch_normalization_1/batchnorm/mul f4 [48]
0.011262425 0.15403117 0.16611059 22.485601 0.093430415 0.109666616 0.098047994 0.12434192
1.2254609 0.09105844 0.0086806435 0.1733991 0.024981467 5.5771856 0.021285966 0.08654252
0.09306737 0.09744306 27.36961 16.0452 0.06306227 0.306659 0.10123683 16.25598
24.206652 0.0409582 0.2912405 11.08896 0.21387564 0.0034197415 0.15132847 0.1702873
-0.45284334 0.23678538 0.0010270565 24.54425 0.29680344 0.20438738 0.060268786 0.14762294
0.014946666 0.28072926 11.665689 0.051210865 0.19282542 0.045681324 0.14047092 1.1712983
00000000: 0986 383c 59ba 1d3e e518 2a3e 83e2 b341
00000010: 7258 bf3d e498 e03d 63cd c83d faa6 fe3d
00000020: e7db 9c3f d97c ba3d 4239 0e3c 898f 313e
00000030: efa5 cc3c 4e78 b240 e85f ae3c 343d b13d
00000040: 1b9a be3d 3a90 c73d f6f4 da41 925c 8041
00000050: cb26 813d 6902 9d3e 4155 cf3d 3f0c 8241
00000060: 39a7 c141 c9c3 273d 7a1d 953e 616c 3141
00000070: 3702 5b3e be1d 603b daf5 1a3e cb5f 2e3e
00000080: 15db e7be de77 723e 4c9e 863a a05a c441
00000090: 9ff6 973e ed4a 513e 67dc 763d 782a 173e
000000a0: dce2 743c bfbb 8f3e aaa6 3a41 7cc2 513d
000000b0: 0774 453e 571c 3b3d 9cd7 0f3e 1aed 953f

batch_normalization_1/batchnorm/sub f4 [48]
-0.10328903 0.10610439 0.2190758 39.53107 0.03609061 -0.012323666 0.039914 0.058917023
2.1352944 0.0036017252 -0.1291296 0.20089866 -0.08430991 9.808118 -0.061231956 -0.04745462
0.04613472 -0.020028286 48.119034 28.211468 0.019221174 0.4752013 0.058438793 28.580378
42.554893 -0.09321155 0.49622092 19.49273 0.24740936 -0.13572358 0.13066846 0.19139178
-0.7987021 0.35061553 -0.25842223 43.148567 0.4349989 0.23522699 -0.036321826 0.097996496
-0.07792068 0.34047848 20.513355 -0.008523964 0.18552817 -0.06817544 0.09686098 2.0371041
00000000: 3389 d3bd 424d d93d 6855 603e d11f 1e42
00000010: bfd3 133d 34e9 49bc dd7c 233d fa52 713d
00000020: aaa8 0840 ec0a 6c3b 8d3a 04be 61b8 4d3e
00000030: adaa acbd 0dee 1c41 5cce 7abd c75f 42bd
00000040: c3f7 3c3d 5c12 a4bc e479 4042 16b1 e141
00000050: b975 9d3c 964d f33e 845d 6f3d 9da4 e441
00000060: 3638 2a42 b2e5 bebd ab10 fe3e 1cf1 9b41
00000070: e158 7d3e 1ffb 0abe f4cd 053e 35fc 433e
00000080: be77 4cbf e183 b33e eb4f 84be 2298 2c42
00000090: 2db8 de3e 58df 703e 32c6 14bd 63b2 c83d
000000a0: e194 9fbd 3253 ae3e 5a1b a441 19a8 0bbc
000000b0: 19fb 3d3e 919f 8bbd 0d5f c63d ea5f 0240

conv2d_1/Conv2D_bias f4 [24]
0.22277817 -0.10383599 0.16619879 -0.039806556 -0.004003864 0.0032155877 0.00463793 -0.063728675
-0.15340298 0.124134645 -0.041956097 0.055013455 0.01422914 -0.051797125 -0.033896193 0.018454015
0.08696281 -0.07172497 -0.08651726 -0.012652221 -0.039315205 -0.024020845 0.0013615876 -0.04526177
00000000: f61f 643e f7a7 d4bd 0430 2a3e 330c 23bd
00000010: d832 83bb 9cbc 523b c7f9 973b 2e84 82bd
00000020: ac15 1dbe 4e3a fe3d 28da 2bbd ca55 613d
00000030: 5721 693c 3929 54bd bcd6 0abd e02c 973c
00000040: 8f19 b23d 8be4 92bd f62f b1bd 434b 4fbc
00000050: fb08 21bd 5dc7 c4bc 4c77 b23a 6864 39bd

conv2d_1/kernel f4 [24, 3, 3, 3]
-0.38455117 0.031767085 0.20746677 -0.44354966 0.050734058 0.26681903 -0.23699054 0.10987444
0.20583254 -0.50824034 0.10498282 -0.107146814 -0.52140623 0.015294806 0.17048113 -0.26823407
0.022837793 -0.055994302 -0.3873342 0.24055694 -0.101196125 -0.3963529 0.27220047 0.011711371
-0.3519139 0.024656747 0.129278 -0.13962387 0.41158664 0.0034403473 -0.16492899 0.389968
-0.26732463 -0.04948556 0.48647606 -0.38110152 -0.23449437 0.37609404 -0.103972085 -0.15882754
0.17544985 -0.30031976 -0.10622856 0.32744333 -0.33348602 0.019172726 0.24028748 0.027539797
-0.29552826 0.3553033 -0.42440063 -0.17298204 0.4421186 -0.28916767 0.063038036 -0.20412958
-0.21823642 0.20132357 0.14702636 -0.20734912 0.4541604 0.19886415 -0.0827722 0.30574393
0.060729194 -0.1347329 -0.06863063 -0.11591906 -0.40785867 0.06329335 -0.22385079 -0.47568697
0.18813434 -0.13778661 -0.048983492 0.17441852 -0.0684638 -0.01728083 0.2595538 0.045883615
-0.19223134 -0.113442756 -0.22599538 -0.32467228 0.20091398 -0.042091683 0.0852903 0.48479888
0.25096223 0.38882676 0.2611241 -0.16173431 -0.17267613 0.079606906 -0.045372132 -0.09368896
0.2074893 0.032426506 -0.21567753 0.18770763 0.14971931 0.0077237044 -0.086855985 -0.26952776
-0.37809923 0.12650973 -0.17524947 -0.30406317 -0.15872423 -0.29486918 -0.34161943 0.28835127
0.09699589 0.27214634 0.63472915 0.4903896 0.26695085 -0.26995218 -0.4356308 -0.41650084
-0.1300117 -0.34039205 -0.163681 0.67006904 0.23166163 0.29910034 -0.16333576 -0.44236174
-0.045201983 -0.25944299 -0.49336484 -0.022827229 0.07706634 0.10950281 0.23314156 -0.13608554
-0.17934254 -0.023339812 0.17469524 -0.058361948 0.39957798 0.023479685 -0.056291506 -0.0036959213
-0.2959454 -0.40267578 0.011354889 0.45176244 0.057972275 0.6590451 -0.21482193 -0.43763143
-0.08420594 -0.13019642 -0.24883944 -0.33749965 0.6191306 0.45508227 0.60254174 -0.147821
-0.27355185 -0.360632 0.5609835 0.3266358 0.5397631 0.43019143 0.023081623 0.44008225
0.034007918 -0.37552586 -0.22908817 0.41327012 0.29293117 0.37464952 -0.23824364 -0.39786878
-0.09289936 -0.16287811 -0.7341313 -0.28457025 0.13675648 -0.028838506 0.15453859 -0.20105316
-0.53866935 -0.31728142 0.04439099 -0.29214168 -0.059483428 -0.1865122 -0.10250492 -0.3556631
-0.55335957 -0.4359715 -0.26359197 -0.42258283 -0.4715705 -0.17969629 0.42159796 0.27645516
0.4737349 0.2873748 0.37528393 0.6737077 0.29926866 0.24508269 0.45222476 0.015765045
-0.07372447 -0.0707031 0.13061893 -0.14899085 0.011254912 -0.010194007 -0.23120156 0.1467352
0.34299543 0.18358968 0.4729031 -0.2657037 -0.40818813 0.1495278 -0.5671876 -0.6251609
-0.08763599 0.24324852 0.33220035 0.7617231 0.04950916 0.08811812 0.6840636 -0.28197134
-0.46044555 -0.11066548 0.015707169 -0.16900277 0.036166545 0.30408463 -0.015899148 0.56410426
-0.12711664 -0.29313394 0.038403075 0.38525203 -0.13336952 -0.2672759 0.5616201 0.10255839
-0.13899343 0.09347252 -0.32548228 -0.1578258 0.4455432 -0.008514717 -0.07098703 0.31153572
00000000: e4e3 c4be 341e 023d 2b72 543e f118 e3be
00000010: 84ce 4f3d 819c 883e a6ad 72be da05 e13d
00000020: c4c5 523e 0a1c 02bf 3c01 d73d ca6f dbbd
00000030: e17a 05bf 1197 7a3c 9b92 2e3e fa55 89be
00000040: 5316 bb3c 485a 65bd ab50 c6be 8f54 763e
00000050: ea3f cfbd c4ee cabe dc5d 8b3e 0de1 3f3c
00000060: 0f2e b4be f2fc c93c 7461 043e 8ff9 0ebe
00000070: 7cbb d23e 7377 613b 25e3 28be e3a9 c73e
00000080: c6de 88be 5fb1 4abd 6413 f93e bd1f c3be
00000090: 4b1f 70be 668f c03e 51ef d4bd b0a3 22be
000000a0: 20a9 333e 83c3 99be 5c8e d9bd a7a6 a73e
000000b0: aebe aabe 1f10 9d3c ec0d 763e 249b e13c
000000c0: 7b4f 97be 50ea b53e 0a4b d9be 3422 31be
000000d0: 5e5d e23e c90d 94be 161a 813d 5807 51be
000000e0: 5e79 5fbe c427 4e3e 148e 163e 5453 54be
000000f0: b687 e83e 0ba3 4b3e 7984 a9bd 788a 9c3e
00000100: 2dbf 783d 6cf7 09be 378e 8cbd f966 edbd
00000110: dad2 d0be f29f 813d 2439 65be 3e8d f3be
00000120: 4aa6 403e ef17 0dbe eaa2 48bd c59a 323e
00000130: c036 8cbd 8790 8dbc 3ce4 843e 75f0 3b3d
00000140: 4bd8 44be ad54 e8bd 556b 67be 723b a6be
00000150: 65bc 4d3e 5468 2cbd aeac ae3d 8f37 f83e
00000160: 1f7e 803e 4d14 c73e 0fb2 853e ae9d 25be
00000170: 03d2 30be f208 a33d 21d8 39bd ffdf bfbd
00000180: 1378 543e a8d1 043d 92da 5cbe 6e36 403e
00000190: 0550 193e 2117 fd3b 8de1 b1bd 8bff 89be
000001a0: 3996 c1be c48b 013e 9974 33be 2bae 9bbe
000001b0: 9b88 22be 18f9 96be bee8 aebe c7a2 933e
000001c0: c8a5 c63d c456 8b3e 9c7d 223f 5814 fb3e
000001d0: c8ad 883e 2c37 8abe 000b dfbe 993f d5be
000001e0: c921 05be de47 aebe fe9b 27be a589 2b3f
000001f0: b538 6d3e ae23 993e 7d41 27be 3d7d e2be
00000200: b725 39bd b6d5 84be 519a fcbe 2b00 bbbc
00000210: f5d4 9d3d 0243 e03d a9bc 6e3e 025a 0bbe
00000220: 92a5 37be 2233 bfbc 4fe3 323e f00c 6fbd
00000230: 7c95 cc3e 7858 c03c ec91 66bd 4537 72bb
00000240: 2886 97be 852b cebe db09 3a3c 684d e73e
00000250: 5674 6d3d 2eb7 283f 48fa 5bbe 3a11 e0be
00000260: 2a74 acbd 3652 05be c4cf 7ebe c1cc acbe
00000270: 587f 1e3f 8b00 e93e 2d40 1a3f 635e 17be
00000280: fd0e 8cbe c2a4 b8be 9d9c 0f3f cf3c a73e
00000290: ea2d 0a3f 0d42 dc3e ac15 bd3c 7652 e13e
000002a0: e34b 0b3d ed44 c0be 1796 6abe 2498 d33e
000002b0: 13fb 953e 10d2 bf3e 24f6 73be 75b5 cbbe
000002c0: 0542 bebd 85c9 26be 07f0 3bbf 31b3 91be
000002d0: e409 0c3e bb3e ecbc 5d3f 1e3e e1e0 4dbe
000002e0: 3ce6 09bf b672 a2be 54d3 353d 9893 95be
000002f0: e5a4 73bd 0efd 3ebe 19ee d1bd 7919 b6be
00000300: f9a8 0dbf a837 dfbe 87f5 86be c75c d8be
00000310: b071 f1be 4e02 38be b0db d73e 888b 8d3e
00000320: 618d f23e ca22 933e 3725 c03e 1c78 2c3f
00000330: be39 993e f5f6 7a3e 018a e73e b225 813c
00000340: dbfc 96bd c9cc 90bd f8c0 053e 0f91 18be
00000350: 8666 383c c404 27bc 1ac0 6cbe c141 163e
00000360: 199d af3e effe 3b3e 5b20 f23e 510a 88be
00000370: 09fe d0be d11d 193e 3533 11bf 8b0a 20bf
00000380: 7f7a b3bd 2416 793e 2a16 aa3e 4900 433f
00000390: 1eca 4a3d 4677 b43d cb1e 2f3f 8c5e 90be
000003a0: 85bf ebbe 95a4 e2bd 52ac 803c 100f 2dbe
000003b0: 5f23 143d fbb0 9b3e ee3e 82bc 2369 103f
000003c0: dd2a 02be a715 96be 8b4c 1d3d c13f c53e
000003d0: 0592 08be 63d8 88be 56c6 0f3f 220a d23d
000003e0: 4b54 0ebe 856e bf3d 9da5 a6be 169d 21be
000003f0: 3d1e e43e 5081 0bbc a661 91bd 9c81 9f3e

conv2d_2/Conv2D_bias f4 [48]
-0.1521202 -0.5950999 -0.92473 -0.14720921 -0.57808423 -0.37485638 0.13324514 0.15163052
0.12562005 -0.1286936 -0.18447381 -0.5383889 -0.6373547 -0.10045822 -0.32480797 0.21456428
-0.5344616 -0.42310032 0.39044893 0.49395394 -0.55369216 -0.66056186 -0.41723722 -0.4556854
-0.5816324 -0.8331787 -0.40762365 0.3195085 0.05838799 -0.51075387 0.21535285 -0.69204915
-0.55213064 -0.5147336 -0.09234764 -0.19909866 -0.822311 -0.27744585 -0.61394465 -0.71460974
-0.11904256 -0.61501086 0.5680367 -0.5873049 -0.54117 -0.13990209 -0.3679673 0.38893527
00000000: 66c5 1bbe 7858 18bf 1bbb 6cbf 03be 16be
00000010: 54fd 13bf 2ded bfbe 6a71 083e 0845 1b3e
00000020: 8ba2 003e 41c8 03be b4e6 3cbe dbd3 09bf
00000030: ad29 23bf 0abd cdbd 3b4d a6be bdb6 5b3e
00000040: 7ad2 08bf 9ba0 d8be ece8 c73e 88e7 fc3e
00000050: c5be 0dbf 951a 29bf 1ea0 d5be 994f e9be
00000060: dce5 14bf 334b 55bf 0cb4 d0be 9e96 a33e
00000070: 3f28 6f3d c4c0 02bf 7585 5c3e 222a 31bf
00000080: 6f58 0dbf 95c5 03bf c220 bdbd 85e0 4bbe
00000090: f982 52bf 620d 8ebe 7a2b 1dbf aaf0 36bf
000000a0: 96cc f3bd 5a71 1dbf da6a 113f 9d59 16bf
000000b0: 1e8a 0abf 7e42 0fbe 3666 bcbe 8622 c73e

conv2d_2/kernel f4 [48, 3, 3, 24]
0.06479937 0.018731864 0.2773562 -0.1281208 -0.63732374 0.52954906 -0.059958167 0.09846017
0.35472468 0.18198115 -0.5406081 0.41780797 -0.058680754 -0.2305457 0.31207088 0.15612596
-0.097028896 -0.15561345 0.37380755 -0.09520584 -0.80209225 0.286016 -0.50086606 -0.40941265
0.03334593 0.1919019 0.069053665 0.41980517 0.7233116 -0.16464753 -0.0720992 -0.16186553
-0.36342365 -0.060419016 0.3797154 -0.40777174 0.65547895 0.3781892 0.079531446 -0.055515364
0.08710334 0.0786846 -0.16282055 0.0541677 0.42477414 0.31663334 -0.004192793 0.55042017
-0.044079583 -0.24901672 -0.14580289 -0.24683459 -0.13609037 0.08789929 0.009638877 0.48711058
0.16322689 -0.18470766 0.39604187 -0.09227965 0.029400704 -0.33550614 -0.57318 0.2329639
-0.03338023 0.013058845 -0.35421023 0.042152055 0.57719165 -0.49352285 0.5155178 0.18688124
0.06217877 -0.1403449 -0.14128019 -0.23323232 0.04662377 0.041851416 -0.1256044 0.40276402
0.36703402 -0.098104976 0.4728344 0.0914794 -0.08844043 -0.11469609 -0.26512387 0.09786852
0.050036386 -0.1061264 -0.30809483 0.22215378 0.9019996 -0.4760107 0.4822219 0.54505587
-0.03494723 0.23348793 0.23457694 -0.23100074 -0.9894227 0.27066782 -0.06284903 0.5749893
0.61432886 0.09879679 -0.7936173 0.678272 -0.7193879 -0.48798615 0.39428693 -0.26814508
-0.19325566 -0.18818638 0.44476965 -0.36989343 -0.70945454 0.0152039295 -0.6116119 -0.5140981
0.121732704 0.14671269 0.2637926 0.2749873 0.7512158 -0.0345568 -0.2831404 -0.83425564
-0.43106648 0.09854009 0.14542198 -0.3812519 0.33456853 0.3572632 0.4295697 -0.018129848
0.056968737 0.16519034 -0.32228994 -0.034177803 0.0065879584 0.49278444 -0.16892174 0.41951597
0.028530804 0.13080913 0.1849438 0.48853636 0.5440261 -0.16026366 -0.24906088 -0.5864263
-0.36850142 0.08739384 0.18331121 -0.34688112 0.35841355 0.3411614 0.08371941 -0.03103689
0.04142389 0.018111814 -0.30552483 -0.1459773 -0.25451845 0.61376554 -0.33786616 0.37390482
-0.060804028 -0.01563797 0.01667277 -0.01639827 0.2126162 -0.014105611 -0.04666842 0.2588951
0.28890908 -0.19550997 0.368676 -0.09464123 0.2766572 0.016311513 -0.39528018 0.16289897
0.020707045 0.006033627 -0.3530223 0.22023016 0.48281977 -0.045745872 0.26071104 0.6215833
-0.01747419 0.053380076 0.04227724 -0.37146527 -0.7172415 -0.2772204 0.15342557 0.83765537
0.5054746 -0.02346763 -0.29283538 0.5862258 -0.24870346 -0.18320313 0.22972873 -0.6125054
-0.11172635 -0.27097172 0.29557413 0.14164515 -0.02935411 -0.17416514 -0.3065769 -0.30225724
0.11966001 0.07084883 0.18646353 0.13334863 -0.22223172 0.052999023 -0.21473727 -0.19774346
-0.22769251 0.06298716 -0.2956748 -0.026695222 -0.13800462 0.15945725 0.23174848 0.11525934
0.06265588 -0.13315533 0.1589946 0.040716786 -0.34944206 0.09230909 -0.40971267 -0.12943155
0.22940096 -0.050096106 -0.10239342 0.26100928 0.7168414 -0.60902065 -0.21883245 0.0498009
-0.43076146 -0.02785708 0.61728287 -0.5076393 0.3812252 0.4774018 -0.3315448 -0.24559915
00000000: 88b5 843d 9173 993c a201 8e3e 1932 03be
00000010: a627 23bf 8790 073f b296 75bd 7ca5 c93d
00000020: 799e b53e 4459 3a3e 4b65 0abf edea d53e
00000030: 3b5b 70bd 2c14 6cbe c1c7 9f3e 7cdf 1f3e
00000040: 16b7 c6bd 2259 1fbe b463 bf3e 48fb c2bd
00000050: eb55 4dbf b070 923e c238 00bf 899e d1be
00000060: be95 083d ef81 443e 026c 8d3d b4f0 d63e
00000070: f32a 393f 5d99 28be bfa8 93bd 14c0 25be
00000080: aa12 babe ee79 77bd 0f6a c23e 75c7 d0be
00000090: 78cd 273f 04a2 c13e 62e1 a23d 1464 63bd
000000a0: 3c63 b23d 6425 a13d 6eba 26be f3de 5d3d
000000b0: ff7b d93e c41d a23e b263 89bb 56e8 0c3f
000000c0: cb8c 34bd 3dfe 7ebe 5a4d 15be 35c2 7cbe
000000d0: 465b 0bbe 8b04 b43d 61ec 1d3c 8f66 f93e
000000e0: f324 273e 0124 3dbe 00c6 ca3e 1dfd bcbd
000000f0: bfd9 f03c 76c7 abbe edbb 12bf 178e 6e3e
00000100: b5b9 08bd c4f4 553c 0b5b b5be a2a7 2c3d
00000110: d5c2 133f 07af fcbe f9f8 033f cc5d 3f3e
00000120: 2aaf 7e3d 93b6 0fbe c1ab 10be 74d4 6ebe
00000130: 91f8 3e3d 646c 2b3d 719e 00be 1637 ce3e
00000140: e2eb bb3e 43eb c8bd 5a17 f23e 8d59 bb3d
00000150: 4220 b5bd c9e5 eabd 51be 87be 4a6f c83d
00000160: f4f2 4c3d cc58 d9bd 9bbe 9dbe 487c 633e
00000170: 72e9 663f adb7 f3be cae5 f63e c888 0b3f
00000180: d424 0fbd 7617 6f3e f034 703e 758b 6cbe
00000190: ce4a 7dbf f994 8a3e feb6 80bd 8032 133f
000001a0: a844 1d3f f955 ca3d 812a 4bbf 3ca3 2d3f
000001b0: ce29 38bf 52d9 f9be fadf c93e 504a 89be
000001c0: d0e4 45be eeb3 40be d9b8 e33e ac62 bdbe
000001d0: d09e 35bf e719 793c 9992 1cbf ef9b 03bf
000001e0: ff4e f93d da3b 163e d30f 873e 23cb 8c3e
000001f0: ae4f 403f 6e8b 0dbd c7f7 90be c791 55bf
00000200: bfb4 dcbe 63cf c93d 80e9 143e 7333 c3be
00000210: 914c ab3e 34eb b63e 8ff0 db3e 0c85 94bc
00000220: 0d58 693d a827 293e 3003 a5be 06fe 0bbd
00000230: cddf d73b 3e4e fc3e d2f9 2cbe ccca d63e
00000240: 6fb9 e93c d4f2 053e e861 3d3e 7021 fa3e
00000250: 4b45 0b3f 281c 24be d109 7fbe 0920 16bf
00000260: 38ac bcbe 8bfb b23d efb5 3b3e 679a b1be
00000270: fb81 b73e b5ac ae3e 1575 ab3d 1341 febc
00000280: 19ac 293d 3a5f 943c c06d 9cbe 137b 15be
00000290: 3e50 82be bd1f 1d3f cbfc acbe 7470 bf3e
000002a0: a50d 79bd 331b 80bc 5595 883c aa55 86bc
000002b0: 10b8 593e 381b 67bc 6327 3fbd e68d 843e
000002c0: e4eb 933e c433 48be 1ac3 bc3e 43d3 c1bd
000002d0: 03a6 8d3e b99f 853c 2a62 cabe fdce 263e
000002e0: d2a1 a93c bbb5 c53b 57bf b4be 0484 613e
000002f0: 2734 f73e 0660 3bbd eb7b 853e 1520 1f3f
00000300: 0826 8fbc 11a5 5a3d e62a 2d3d b230 bebe
00000310: 249d 37bf d5ef 8dbe 981b 1d3e 9570 563f
00000320: c966 013f 303f c0bc 85ee 95be e512 163f
00000330: 1fac 7ebe 9a99 3bbe 023e 6b3e 27cd 1cbf
00000340: c9d0 e4bd cebc 8abe 7e55 973e 6d0b 113e
00000350: 0878 f0bc 5958 32be a6f7 9cbe 76c1 9abe
00000360: 4f10 f53d 3119 913d 4cf0 3e3e 8b8c 083e
00000370: b690 63be 8115 593d 16e4 5bbe 437d 4abe
00000380: 3a28 69be 6aff 803d b062 97be f0af dabc
00000390: 1551 0dbe c348 233e 794f 6d3e 170d ec3d
000003a0: ba51 803d df59 08be 7bcf 223e a5c6 263d
000003b0: 12ea b2be 8c0c bd3d dcc5 d1be b489 04be
000003c0: 16e8 6a3e 9331 4dbd a4b3 d1bd 02a3 853e
000003d0: eb82 373f c7e8 1bbf 9d15 60be 07fc 4b3d
000003e0: c48c dcbe 8834 e4bc 4006 1e3f a6f4 01bf
000003f0: f32f c33e 026e f43e 3dc0 a9be 587e 7bbe

conv2d_3/Conv2D_bias f4 [48]
-0.54552877 -0.10640712 -0.5005253 -0.092023216 -0.5773792 -0.20588914 -0.058620013 -0.2581845
-0.60051227 -0.0797689 -0.41459846 -0.51836777 -0.47460654 -1.2634447 0.42952916 -0.73170155
-0.5105474 -0.3767843 0.07246451 -0.445042 -1.4695737 0.04447799 -0.84385854 -0.13599332
-1.4711658 -0.3751466 -0.38128823 -0.12970677 0.049397442 0.15834282 -0.6169732 -0.44529474
-0.35799965 -1.3612509 -1.2501987 -0.70778465 -1.0813179 -0.41106424 0.4254523 -1.3587427
-0.12625346 0.11060728 -0.07960876 -0.41025996 0.10906724 0.5240599 -0.14409961 -0.111383684
00000000: c6a7 0bbf faeb d9bd 6d22 00bf ab76 bcbd
00000010: 20cf 13bf 9ad4 52be 8a1b 70bd c230 84be
00000020: 2cbb 19bf e15d a3bd 4046 d4be c0b3 04bf
00000030: a1ff f2be 8eb8 a1bf 3feb db3e cb50 3bbf
00000040: 3cb3 02bf dfe9 c0be 4668 943d 8cdc e3be
00000050: fe1a bcbf 8e2e 363d 1d07 58bf d541 0bbe
00000060: 294f bcbf 3713 c0be 3638 c3be dad1 04be
00000070: f954 4a3d 9f24 223e f5f1 1dbf acfd e3be
00000080: bb4b b7be 783d aebf 8306 a0bf 6031 35bf
00000090: a068 8abf 0377 d2be e2d4 d93e 48eb adbf
000000a0: 9648 01be 1286 e23d eb09 a3bd 980d d2be
000000b0: a55e df3d ca28 063f d98e 13be 211d e4bd

conv2d_3/kernel f4 [48, 3, 3, 48]
-0.67952824 -0.37567112 0.11417622 0.4912353 0.5406587 -0.27629027 -0.17629866 0.43497857
0.2428056 -0.039806698 -0.37912855 0.15305492 0.4811087 -0.1408766 0.0067768344 -0.7043103
-0.39353782 0.34866798 -0.54379797 -0.8002668 0.7386819 0.15289634 0.14652915 -0.59630364
0.26309937 -0.033424262 -0.6777894 -0.43445766 -1.6157484 -0.43861237 0.18266082 -0.6188492
-0.3563788 -0.06234168 0.10540817 0.09651315 -0.7570729 -0.8801743 -0.73011273 0.270623
0.12888682 0.034044985 0.03412576 -0.7824351 -0.09679848 -0.26091206 -0.20657259 0.91577035
-0.72245884 -0.52316785 -0.10944183 0.22445486 0.5393719 0.1476825 -0.34076017 0.24252374
0.19156244 -0.15331444 -0.37687987 0.13486032 0.1653129 -0.049849346 0.14713483 -0.5842937
-0.29213947 0.07524305 -0.6381512 -0.8729127 0.54251045 -0.15521151 0.1387587 -0.48330188
0.03289731 0.23074868 -0.26594156 -0.5316476 -1.6494128 -0.15105028 0.015593499 -0.299835
-0.30702522 -0.17562667 -0.06927749 0.043183126 -0.528006 -1.1629297 -0.5243857 0.18898104
-0.18304412 -0.31411394 0.05260917 -0.40118915 -0.063275926 -0.31808394 -0.078701675 0.8809475
-0.7198075 -0.9031469 -0.21932383 0.104048304 0.45497903 0.16411367 0.021205427 0.5995179
0.16476643 -0.103840254 -0.6340036 -0.23593292 0.09774572 -0.3167129 0.034372903 -0.16107425
-0.33045664 -0.30603385 -0.81035537 -0.7049127 0.12264401 -0.20502569 0.056861285 -0.56280565
-0.16766281 0.122534946 -0.39429778 -0.5588073 -1.2776295 -0.14119264 0.10070656 -0.088250816
-0.20587468 -0.3275003 -0.20030202 0.019038621 -0.41134232 -1.2701209 -0.73102 -0.107309856
-0.21222422 -0.1717584 -0.037550204 -0.3383701 -0.008713734 -0.26989552 -0.023728529 0.61219096
-0.15115315 -0.012956218 -0.024562234 0.19017096 -0.16080983 -0.6605919 0.27383205 0.37527475
-0.30658886 -0.22049902 -0.013192114 0.058545932 0.3447104 0.13936062 0.006353805 -0.14598832
-0.15970978 -0.0028754408 0.24599342 -0.097471915 -0.33047166 -0.3682882 -0.08706933 -0.28235546
-0.6549315 -0.013545582 0.1769814 -0.35304806 -0.524506 -0.07122965 -0.012646192 0.36252517
-0.18878058 0.24138676 0.32500553 0.37897235 0.027652007 -0.0014799814 0.19197921 -0.07472118
0.31471416 0.20096739 0.19373599 -0.5599879 -0.30732468 -0.44140986 -0.24476297 -0.7967554
-0.10292118 0.1955108 -0.046591923 0.15549587 -0.14007989 -0.41163266 0.11625554 0.1720603
-0.23800337 -0.267939 -0.12108981 -0.100959696 0.09397875 0.05107176 -0.06963338 0.12771507
-0.26309025 -0.18163443 0.17122993 -0.3015062 -0.09238852 -0.3397147 -0.11344949 0.018285593
-0.69366986 -0.04989801 0.2296491 -0.34456533 -0.5508337 -0.09599353 -0.23248409 0.2699113
-0.14845084 -0.11457536 0.30286342 0.12100401 0.11664534 0.118970655 0.12993668 -0.11627099
0.28795114 -0.043633893 0.21992676 -0.29903942 -0.18742296 -0.46432412 -0.16890313 -0.7423402
-0.21909784 0.37251166 -0.120599344 0.08090487 -0.22252193 -0.31321624 0.013653399 0.5109025
-0.31522578 -0.08475059 -0.3473775 -0.16095845 -0.07503722 -0.11696023 0.07919387 0.1650361
00000000: 90f5 2dbf f757 c0be 39d5 e93d 3183 fb3e
00000010: 9c68 0a3f eb75 8dbe a387 34be 83b5 de3e
00000020: 08a2 783e 590c 23bd 231d c2be 6eba 1c3e
00000030: e153 f63e f541 10be 3510 de3b ae4d 34bf
00000040: ca7d c9be 9c84 b23e 5836 0bbf 49de 4cbf
00000050: 421a 3d3f dc90 1c3e bd0b 163e 5ba7 18bf
00000060: f6b4 863e e1e7 08bd 9b83 2dbf 3c71 debe
00000070: d8d0 cebf cd91 e0be 700b 3b3e e76c 1ebf
00000080: 4877 b6be fd59 7fbd 3de0 d73d b0a8 c53d
00000090: 88cf 41bf 1a53 61bf abe8 3abf 198f 8a3e
000000a0: e8fa 033e c172 0b3d 74c7 0b3d ab4d 48bf
000000b0: 483e c6bd 4496 85be c487 53be ed6f 6a3f
000000c0: 10f3 38bf 54ee 05bf 0a23 e0bd 7fd7 653e
000000d0: 4714 0a3f 153a 173e 1e78 aebe 2558 783e
000000e0: f228 443e 76fe 1cbe 66f6 c0be d318 0a3e
000000f0: c947 293e d42e 4cbd 83aa 163e 4694 15bf
00000100: 4e93 95be 0719 9a3d e15d 23bf 3577 5fbf
00000110: f7e1 0a3f c4ef 1ebe c316 0e3e 5873 f7be
00000120: 54bf 063d 6249 6c3e 7e29 88be 0f1a 08bf
00000130: f51f d3bf edac 1abe e07b 7f3c f983 99be
00000140: 6932 9dbe 7ad7 33be 5be1 8dbd cae0 303d
00000150: 672b 07bf e1da 94bf 243e 06bf 3f84 413e
00000160: eb6f 3bbe 8bd3 a0be b77c 573d aa68 cdbe
00000170: cf96 81bd e6db a2be 582e a1bd c685 613f
00000180: 4e45 38bf a334 67bf 6d96 60be 4717 d53d
00000190: 03f3 e83e 6a0d 283e 01b7 ad3c 017a 193f
000001a0: 88b8 283e 33aa d4bd 0f4e 22bf 6698 71be
000001b0: e82e c83d 3128 a2be 9aca 0c3d a6f0 24be
000001c0: 9d31 a9be 78b0 9cbe 7373 4fbf 2975 34bf
000001d0: c82c fb3d 41f2 51be 61e7 683d 0814 10bf
000001e0: cdaf 2bbe 9af3 fa3d 66e1 c9be ff0d 0fbf
000001f0: 5d89 a3bf ce94 10be 3e3f ce3d d8bc b4bd
00000200: d0d0 52be 1fae a7be f91b 4dbe e2f6 9b3c
00000210: 769b d2be 5293 a2bf 2024 3bbf 45c5 dbbd
00000220: 4e51 59be 6fe1 2fbe 3ece 19bd d93e adbe
00000230: 0dc4 0ebc bf2f 8abe 5562 c2bc 8cb8 1c3f
00000240: e4c7 1abe 5146 54bc bd36 c9bc 2dbc 423e
00000250: 55ab 24be 8d1c 29bf b733 8c3e 0324 c03e
00000260: 37f9 9cbe 7fca 61be bd23 58bc dccd 6f3d
00000270: e27d b03e 8db4 0e3e 9433 d03b f67d 15be
00000280: f68a 23be e471 3cbb b3e5 7b3e 5b9f c7bd
00000290: 9533 a9be 4590 bcbe 6851 b2bd e590 90be
000002a0: 97a9 27bf 4aee 5dbc 9d3a 353e b7c2 b4be
000002b0: 0646 06bf dae0 91bd f931 4fbc e69c b93e
000002c0: b24f 41be 172e 773e 2067 a63e aa08 c23e
000002d0: 7686 e23c effb c1ba 3396 443e 6b07 99bd
000002e0: 3722 a13e 65ca 4d3e ba62 463e 5e5b 0fbf
000002f0: a959 9dbe 7900 e2be 25a3 7abe 29f8 4bbf
00000300: 57c8 d2bd fc33 483e 2cd7 3ebd 4f3a 1f3e
00000310: 1a71 0fbe 84c1 d2be 6217 ee3d 9330 303e
00000320: 28b7 73be 4d2f 89be effd f7bd f5c3 cebd
00000330: ee77 c03d 9f30 513d f29b 8ebd bdc7 023e
00000340: c4b3 86be 60fe 39be e656 2f3e 055f 9abe
00000350: 3136 bdbd 16ef adbe 3558 e8bd abcb 953c
00000360: 5994 31bf db61 4cbd 2229 6b3e de6a b0be
00000370: 7003 0dbf 4198 c4bd 4f10 6ebe d031 8a3e
00000380: 7f03 18be 7da6 eabd ea10 9b3e f3d0 f73d
00000390: c1e3 ee3d e3a6 f33d 1f0e 053e 7c1f eebd
000003a0: 556e 933e 74b9 32bd 7b34 613e b21b 99be
000003b0: ceeb 3fbe e4bb edbe f1f4 2cbe 020a 3ebf
000003c0: 2f5b 60be d9b9 be3e cafc f6bd 74b1 a53d
000003d0: cadc 63be e15d a0be 82b2 5f3c 82ca 023f
000003e0: 4665 a1be b891 adbd 77db b1be 4bd2 24be
000003f0: 1dad 99bd d888 efbd 6530 a23d 39ff 283e

conv2d_4/Conv2D_bias f4 [48]
-0.14352947 -0.64878595 -0.77306527 -0.3698095 -0.047918934 -0.61400765 -0.2864516 -0.21196225
-0.54791427 -0.07195488 0.23335953 -0.3712018 -0.79570574 -0.24747413 -0.547991 -0.29079515
-0.7948596 -0.23986088 -0.26053524 -0.3726508 -0.10134172 -1.5372343 -1.1594105 -0.40156597
-0.28718892 -0.074208885 -0.26088753 -0.38008076 -0.6006977 0.4808265 -0.4179773 -0.6892407
-0.30711406 -1.2998506 -0.06082576 -0.27206996 -0.56515306 -0.13753004 0.36594835 -0.9790121
-0.1134998 -0.6595492 -0.38523224 -0.47859004 -0.40798116 -0.16876343 -0.20633206 -0.5771438
00000000: 64f9 12be d616 26bf 9be7 45bf ac57 bdbe
00000010: a546 44bd 9b2f 1dbf c9a9 92be a20c 59be
00000020: 1c44 0cbf 155d 93bd cdf5 6e3e 2a0e bebe
00000030: 5fb3 4bbf dc69 7dbe 2349 0cbf 1ae3 94be
00000040: eb7b 4bbf 179e 75be e064 85be 16cc bebe
00000050: 3f8c cfbd 18c4 c4bf 9067 94bf 0e9a cdbe
00000060: 6d0a 93be d4fa 97bd 0d93 85be f299 c2be
00000070: 53c7 19bf e42e f63e 1f01 d6be 1472 30bf
00000080: 0e3e 9dbe 8161 a6bf 6f24 79bd c14c 8bbe
00000090: dfad 10bf add4 0cbe 955d bb3e 89a0 7abf
000000a0: 9572 e8bd 37d8 28bf 293d c5be c109 f5be
000000b0: e8e2 d0be 52d0 2cbe b648 53be b2bf 13bf

conv2d_4/kernel f4 [48, 3, 3, 48]
-0.7412203 0.124049336 -0.4775907 -0.081534296 -0.08758602 0.107906334 -0.27332175 -0.21824163
-0.18950859 0.140441 -0.17571607 -0.18480057 0.39839894 0.5258489 0.19780783 0.045362286
0.73390883 -0.27152336 0.059625186 -0.005360354 0.16074812 -0.37848598 0.58054817 -0.06473934
0.33442572 -0.00092488906 -0.25588605 0.07712816 -0.039192762 -0.5595966 0.053081177 0.26243505
0.3516591 0.2574761 0.6828877 -0.06444002 0.18706898 0.13104473 0.1886998 0.11681452
-0.23012565 -0.71608895 0.0036299748 0.038000777 -0.06836321 0.09427324 -0.45080122 0.48280257
-0.6371891 0.026811179 -0.20925438 -0.24175784 -0.21746917 -0.3987596 -0.35656974 -0.017878816
-0.24477722 0.045515176 -0.44864374 -0.22006544 -0.09776424 0.3471055 -0.10533989 -0.16143085
0.60488415 -0.40794992 0.031291198 -0.05216893 0.26095086 -0.5803504 0.49644357 -0.17168625
0.26823267 -0.39053774 -0.32278365 -0.17691262 -0.16364872 -0.4514917 -0.12598123 0.064306885
0.1396509 0.37598777 0.6871212 -0.05337271 0.2931881 -0.30418903 0.06736764 0.21731852
-0.39116818 -0.67189676 -0.029713886 0.009689153 -0.039918665 0.086869605 -0.58844763 0.0616381
-0.78407276 0.08647197 -0.20277463 -0.22809193 -0.21197714 -0.28349683 -0.26449838 0.024344845
-0.41226307 -0.0219409 -0.5866053 -0.17307341 -0.081251025 0.33705154 -0.26680103 -0.09354856
0.65907586 -0.35939878 0.0464182 0.08847151 0.25604868 -0.46754822 0.51237965 0.040575527
0.2248703 -0.31461507 -0.39676437 -0.17651317 -0.08226202 -0.22629853 0.047541354 0.12670818
-0.0027127466 0.3430767 0.7595728 -0.1090287 0.2012668 -0.43811342 0.11939724 0.1400624
0.0478709 -0.63987947 -0.15247093 0.02137534 0.1010964 0.15018398 -0.53181165 0.15600467
-0.87288797 0.20510669 -0.6358164 -0.06725841 -0.08020121 -0.03987652 0.06571569 -0.051313512
-0.29794618 0.4401155 -0.025809908 -0.015497126 0.40126526 0.7175056 0.20600824 0.05208506
0.75648344 -0.31966975 -0.007905733 -0.5234756 0.028397521 -0.42918968 0.31323367 0.5861374
0.17488751 -0.17858014 0.018424597 0.108170316 -0.011389946 -0.7093454 0.09777878 0.17272174
0.56565386 0.4887864 0.83157223 -0.075173885 -0.072361924 -0.036447894 0.026243797 0.0011452993
0.42619607 -0.816507 -0.18148755 0.16465707 -0.025481923 0.10566779 0.06281549 0.5977217
-0.7321641 0.12286948 -0.45101735 -0.174232 -0.052976564 -0.21473998 -0.18228056 0.13563797
-0.4712708 0.16279657 -0.2849552 0.11969743 0.058774337 0.6615238 -0.09352331 -0.11077639
0.7771344 -0.3685542 0.07393014 -0.34121063 0.008228296 -0.44756415 0.39719108 0.47949097
0.11888899 -0.20963196 0.027556624 0.109316856 -0.042538602 -0.36693978 -0.03689766 0.0591417
0.28400412 0.45283055 0.8767488 -0.033925936 0.11158535 -0.43981305 -0.07933953 -0.03931778
0.5168562 -0.6998344 -0.34441242 0.15812747 -0.036198586 0.042510264 -0.15721765 0.29374316
-1.0067106 0.13524131 -0.40902257 -0.20702516 -0.22071713 -0.010045518 -0.059206273 0.044078622
-0.24692857 0.12570728 -0.41736242 0.24777919 0.033398278 0.44957998 -0.18096177 -0.09787737
00000000: 9dc0 3dbf 940d fe3d c586 f4be 74fb a6bd
00000010: 4d60 b3bd fffd dc3d d4f0 8bbe bc7a 5fbe
00000020: 8a0e 42be c4cf 0f3e eaee 33be 5c3c 3dbe
00000030: f2fa cb3e 099e 063f 238e 4a3e cecd 393d
00000040: 73e1 3b3f 1c05 8bbe 8a39 743d e9a5 afbb
00000050: 289b 243e eac8 c1be ce9e 143f 0f96 84bd
00000060: d939 ab3e 4174 72ba 7f03 83be 5ef5 9d3d
00000070: 9788 20bd b941 0fbf a66b 593d e35d 863e
00000080: a90c b43e e8d3 833e bad1 2e3f 21f9 83bd
00000090: 038f 3f3e 9730 063e 853a 413e 733c ef3d
000000a0: 0fa6 6bbe 9b51 37bf dfe4 6d3b b4a6 1b3d
000000b0: 0302 8cbd 5412 c13d 6bcf e6be e631 f73e
000000c0: d31e 23bf 1ea3 db3c c846 56be 5e8f 77be
000000d0: 3db0 5ebe 382a ccbe 4f90 b6be 9876 92bc
000000e0: e1a6 7abe 1f6e 3a3d a2b4 e5be d658 61be
000000f0: 9e38 c8bd d0b7 b13e 71bc d7bd 214e 25be
00000100: b0d9 1a3f d0de d0be 332b 003d 17af 55bd
00000110: 5a9b 853e d891 14bf da2d fe3e 85ce 2fbe
00000120: cb55 893e 90f4 c7be e643 a5be 9528 35be
00000130: 8893 27be ec29 e7be 3901 01be 54b3 833d
00000140: a500 0f3e 7881 c03e 2de7 2f3f 589d 5abd
00000150: c01c 963e aabe 9bbe 0cf8 893d bf88 5e3e
00000160: 3247 c8be 6d01 2cbf 896a f3bc 41bf 1e3c
00000170: c181 23bd b1e8 b13d 81a4 16bf 3b78 7c3d
00000180: feb8 48bf 3718 b13d 27a4 4fbe ee90 69be
00000190: 8910 59be 7f26 91be 556c 87be d76e c73c
000001a0: 2514 d3be 67bd b3bc c42b 16bf 283a 31be
000001b0: f066 a6bd 0592 ac3e 259a 88be 6396 bfbd
000001c0: 32b9 283f 1e03 b8be 0321 3e3d 8d30 b53d
000001d0: d018 833e 7b62 efbe 502b 033f 8632 263d
000001e0: 6644 663e 3a15 a1be b324 cbbe debf 34be
000001f0: fd78 a8bd cdba 67be b9ba 423d cabf 013e
00000200: 56c8 31bb c0a7 af3e 5d73 423f 704a dfbd
00000210: e218 4e3e 6750 e0be 8a86 f43d 856c 0f3e
00000220: 4714 443d 24cf 23bf 5721 1cbe 561b af3c
00000230: a10b cf3d d4c9 193e cf24 08bf b0bf 1f3e
00000240: 9675 5fbf 7d07 523e ddc4 22bf c7be 89bd
00000250: 8840 a4bd 9055 23bd f395 863d 1e2e 52bd
00000260: 678c 98be d256 e13e 4d6f d3bc a8e7 7dbc
00000270: a472 cd3e 72ae 373f d3f3 523e 2557 553d
00000280: e6a8 413f c1ab a3be 0c87 01bc 7f02 06bf
00000290: eba1 e83c c0be dbbe 2a60 a03e 1a0d 163f
000002a0: b615 333e b6dd 36be 2eef 963c 6688 dd3d
000002b0: e59c 3abc a997 35bf 3e40 c83d f8dd 303e
000002c0: b1ce 103f 3642 fa3e ebe1 543f c4f4 99bd
000002d0: 7d32 94bd 634a 15bd 3bfd d63c de1d 963a
000002e0: 5f36 da3e 9a06 51bf dfd7 39be dd9b 283e
000002f0: 77bf d0bc 5b68 d83d 68a5 803d 4a04 193f
00000300: 1b6f 3bbf fea2 fb3d bfeb e6be e069 32be
00000310: f4fd 58bd cce4 5bbe c1a7 3abe aee4 0a3e
00000320: 684a f1be 25b4 263e a6e5 91be ed23 f53d
00000330: 5cbd 703d a059 293f 2689 bfbd bbde e2bd
00000340: 48f2 463f 23b3 bcbe af68 973d 29b3 aebe
00000350: facf 063c 2127 e5be a15c cb3e d77f f53e
00000360: 127c f33d c3a9 56be 6ebe e13c 84e1 df3d
00000370: f53c 2ebd 88df bbbe 0022 17bd 913e 723d
00000380: fd68 913e 68d9 e73e 9c72 603f ecf5 0abd
00000390: dc86 e43d 2d2f e1be c37c a2bd ae0b 21bd
000003a0: b050 043f 5928 33bf d356 b0be 2bec 213e
000003b0: f844 14bd 3e1f 2e3d aafd 20be 8165 963e
000003c0: e5db 80bf b37c 0a3e 686b d1be 67fe 53be
000003d0: ac03 62be f595 24bc 4782 72bd c98b 343d
000003e0: d8da 7cbe 69b9 003e 87b0 d5be d4b9 7d3e
000003f0: a2cc 083d 592f e63e 0b4e 39be ee73 c8bd

dense_1/MatMul_bias f4 [2048]
0.027701708 0.029051099 0.013625637 0.0812029 0.004347099 -0.015255017 0.029564489 0.016773805
-0.0070250914 0.027216695 0.028108476 0.051630065 0.013206628 0.0041984543 -0.007243993 0.060293794
0.0019759727 -0.0014176335 0.045087613 0.054096125 0.01921358 0.010729982 -0.007850574 0.023323536
0.045535676 0.004180207 0.02288497 0.008170945 0.011020917 0.030483434 0.026273996 0.06761509
0.040280316 0.011690251 0.038409635 0.0784044 -0.035119362 -0.010408671 0.033848044 0.08056274
0.0328998 0.0015665077 0.02475369 0.05854732 0.028107917 -0.016363323 0.025321005 0.047854237
0.025086684 0.012903952 0.016495518 0.048069116 0.019364918 0.022343596 0.0046597226 0.00036247115
0.060962062 0.059263628 0.118164346 0.09186824 0.03753766 0.079530194 -0.0125449225 -0.04098747
0.031049024 0.0664856 0.09568061 0.02311996 -0.019872341 0.031102704 -0.019462865 0.046874147
0.066445775 0.027738634 0.029374514 0.01575879 0.030679034 0.07241176 0.027269823 0.027878776
0.01457025 0.03237431 0.02454283 0.010048994 0.025773779 0.047908943 0.020626124 0.021899907
0.0057388856 0.035742264 0.04234932 0.06355237 0.029336 0.0053441226 -0.0029688356 0.0016496124
0.044031847 0.025039287 0.014058775 0.055230923 0.033207767 0.0063519147 0.010838684 0.04263388
0.05920802 0.017484255 0.07569484 0.0114708645 0.05230843 0.054074775 0.066446126 0.059946276
0.04925787 0.06663461 0.03725003 -0.014232262 0.038712323 0.01986921 -0.0022156956 0.025862638
0.0041114185 0.054493207 0.014030433 -0.0038783269 0.07524238 -0.005713539 0.032711245 0.021854911
-0.06696329 0.016981745 0.014985977 0.0713021 0.015653249 0.032091174 0.015373713 0.0152043225
0.07540495 0.017640313 -0.0047866693 0.04187388 0.036038343 0.026790565 0.014157375 0.012700692
0.02122437 0.028484372 0.06532897 0.010626888 0.0053673354 0.023998013 0.020369345 0.031697232
0.0331982 0.02679015 0.047527645 0.040462323 0.058187176 -0.008574953 0.045788642 0.021444015
0.023881378 0.04278884 0.0047199945 0.110968605 0.07424292 0.022393938 0.037342895 0.014542475
0.049263068 0.010324971 -0.0087221535 0.04117675 0.081615746 0.032465216 -0.0007247849 0.024977464
0.015341244 0.0034619058 0.04572768 0.025759017 0.040427316 0.042207863 0.015914634 0.032026466
0.023636838 0.008831512 0.0014304535 0.06993135 0.0038498882 0.017917028 0.025744362 0.006837156
-0.016132483 0.090534516 0.020597309 0.06139042 0.0116028935 0.036792226 0.017743327 0.009139981
0.009439502 0.07292975 0.016983679 0.011823015 0.067951396 0.0115767885 -0.006633457 -0.0007619134
0.017844949 0.063910864 0.04874356 0.072844766 0.031899653 0.04118884 0.0296072 0.02535513
0.026123092 0.046480745 0.050550915 0.04097096 0.07561102 0.0064346995 0.029051952 0.0245845
-0.000901596 0.06122227 -0.008522478 -0.0015622182 0.0063855206 -0.010870324 0.024635622 0.014148885
0.03994344 0.0038556992 0.020682516 -0.0041154437 0.0492204 0.047957186 0.044362355 0.01223942
0.009353893 0.0057178643 0.026580185 0.023809584 0.07183982 0.03775106 0.017594278 0.00471106
0.007810354 0.01858754 0.043556485 0.0013593388 0.001059877 0.034958854 0.0629045 0.017701367
00000000: b1ee e23c 92fc ed3c 103e 5f3c b54d a63d
00000010: 1c72 8e3b 2ef0 79bc 3a31 f23c 3869 893c
00000020: bd32 e6bb 8cf5 de3c bf43 e63c 0c7a 533d
00000030: 9d60 583c 3093 893b 055f edbb a0f6 763d
00000040: 527f 013b e3cf b9ba caad 383d e693 5d3d
00000050: cc65 9d3c cecc 2f3c b29f 00bc 0011 bf3c
00000060: 9e83 3a3d 1efa 883b 4379 bb3c 6ddf 053c
00000070: 1491 343c 65b8 f93c 903c d73c c879 8a3d
00000080: f9fc 243d 7788 3f3c 6c53 1d3d 7c92 a03d
00000090: 52d9 0fbd 2189 2abc 3fa4 0a3d 14fe a43d
000000a0: f1c1 063d 4753 cd3a 40c8 ca3c 51cf 6f3d
000000b0: 9342 e63c 600c 86bc ff6d cf3c ce02 443d
000000c0: 9782 cd3c 196b 533c 9c21 873c 1fe4 443d
000000d0: 2da3 9e3c eb09 b73c 96b0 983b 0e0a be39
000000e0: 5bb3 793d 6bbe 723d 2600 f23d 6a25 bc3d
000000f0: 17c1 193d bae0 a23d 3889 4dbc 7ae2 27bd
00000100: 865a fe3c 9a29 883d 32f4 c33d 1266 bd3c
00000110: 52cb a2bc 19cb fe3c 9670 9fbc 1bff 3f3d
00000120: b914 883d 223c e33c d2a2 f03c 9418 813c
00000130: 9952 fb3c 9e4c 943d f764 df3c 0862 e43c
00000140: 0fb8 6e3c ed9a 043d 0c0e c93c 89a4 243c
00000150: 8823 d33c 2b3c 443d 1ef8 a83c 6f67 b33c
00000160: 430d bc3b 7b66 123d 7b76 2d3d bf27 823d
00000170: 0d52 f03c c01d af3b cc90 42bb cf37 d83a
00000180: bd5a 343d 311f cd3c c756 663c d239 623d
00000190: de04 083d b923 d03b bc94 313c dda0 2e3d
000001a0: 1c84 723d 243b 8f3c e505 9b3d 4bf0 3b3c
000001b0: 5d41 563d 837d 5d3d e814 883d 3a8a 753d
000001c0: 9fc2 493d ba77 883d 7d93 183d 6f2e 69bc
000001d0: d090 1e3d c1c4 a23c 3435 11bb e2dd d33c
000001e0: 14b9 863b 4534 5f3d e7df 653c 872b 7ebb
000001f0: ad18 9a3d a438 bbbb 3afc 053d 1209 b33c
00000200: 0d24 89bd 4d1d 8b3c be87 753c d606 923d
00000210: 3e3b 803c 0972 033d 07e2 7b3c 8d1b 793c
00000220: e96d 9a3d 6b82 903c 7ed9 9cbb f283 2b3d
00000230: f19c 133d e377 db3c 56f4 673c 9016 503c
00000240: bbde ad3c 0f58 e93c 32cb 853d 661c 2e3c
00000250: 79e0 af3b 7b97 c43c 9ddd a63c f5d4 013d
00000260: d6fa 073d 0477 db3c 59ac 423d d2bb 253d
00000270: ad55 6e3d f67d 0cbc df8c 3b3d 5cab af3c
00000280: e1a2 c33c 5a43 2f3d 2faa 9a3b 8243 e33d
00000290: ac0c 983d 7e73 b73c ddf4 183d 9043 6e3c
000002a0: 12c8 493d 112a 293c 5de7 0ebc f4a8 283d
000002b0: 2826 a73d 3ffa 043d 7eff 3dba 8a9d cc3c
000002c0: d759 7b3c 24e1 623b f34c 3b3d 9304 d33c
000002d0: 1d97 253d 27e2 2c3d 685f 823c 2f2e 033d
000002e0: 0ba2 c13c 0cb2 103c 0e7e bb3a 2b38 8f3d
000002f0: 684e 7c3b bbc6 923c d7e5 d23c 390a e03b
00000300: 4528 84bc 296a b93d b0bb a83c 8574 7b3d
00000310: 101a 3e3c 72b3 163d 745a 913c dcbf 153c
00000320: 24a8 1a3c 315c 953d 5b21 8b3c 52b5 413c
00000330: 1a2a 8b3d 92ac 3d3c 785d d9bb 25bb 47ba
00000340: 922f 923c b3e3 823d 54a7 473d a32f 953d
00000350: 36a9 023d a1b5 283d cc8a f23c 90b5 cf3c
00000360: 1800 d63c 9862 3e3d 7a0e 4f3d 2ad1 273d
00000370: f3d9 9a3d 2cda d23b 5cfe ed3c 6f65 c93c
00000380: 1559 6cba 34c4 7a3d dda1 0bbc 58c3 ccba
00000390: a13d d13b 7219 32bc a5d0 c93c bad0 673c
000003a0: bc9b 233d e6af 7c3b 616e a93c d8da 86bb
000003b0: 559b 493d c16e 443d 4db5 353d d987 483c
000003c0: 1241 193c ec5c bb3b b0be d93c 510c c33c
000003d0: c120 933d dba0 1a3d e021 903c 3c5f 9a3b
000003e0: 00ee ff3b e644 983c 4968 323d d72b b23a
000003f0: 92eb 8a3a 0431 0f3d 13d4 803d 7502 913c

dense_1/kernel/transpose f4 [2048, 48]
-0.025339238 0.2489307 -0.14381766 -0.038603026 -0.31516 -0.2693603 -0.4709601 0.20360605
0.024648296 -0.33528608 0.06818716 0.12139327 -0.56319284 -0.38217163 0.018619403 0.13746126
-0.010669895 0.39776194 0.07808905 0.06979626 0.21027465 0.37479672 0.03798808 -0.015363874
0.057742156 -0.15516643 0.12106858 0.15232183 -0.031132337 0.03715195 0.2984246 -0.06261001
-0.00056405785 0.1987789 0.0015802687 0.0010605878 0.26238802 -0.05712136 0.1422458 0.06692097
0.25641423 -0.22893308 0.04858933 -0.16619429 -0.1034089 -0.15107445 -0.07348675 -0.18592454
0.2550077 0.5067128 -0.049931306 -0.08060552 0.07755556 -0.082145594 -0.12358863 -0.20019446
0.3610306 -0.02926205 -0.35208598 -0.07788304 -0.15756294 0.21021233 -0.024078077 -0.08068765
0.09845999 0.15614572 0.0029832255 0.05206883 0.030808985 0.11418939 -0.10655588 -0.09482364
-0.37881905 0.12044281 -0.09711316 -0.07371057 0.009915211 0.038678553 0.3374486 0.2000176
-0.19953911 -0.13597286 -0.058252126 0.053335942 -0.021702545 -0.1841288 -0.05637929 0.18744586
0.35899678 -0.07484288 -0.04452052 0.089947306 -0.0017996576 0.1591473 -0.15972508 -0.26658988
0.18662176 0.07237487 -0.20761926 -0.10693145 0.17610246 0.11708872 -0.03632299 0.18415628
-0.32749423 0.011971695 -0.028660059 0.0917525 0.19968851 -0.021669334 -0.1366005 0.090961486
0.3431271 -0.1655634 -0.09436823 -0.07663502 -0.10848746 0.013788127 -0.021403937 -0.16205804
-0.21309501 -0.26180187 -0.26925743 -0.112244 0.28272632 -0.27259126 -0.11845952 0.121826425
0.17120904 -0.2503176 0.29921556 0.07439339 0.3183563 0.11029728 0.005906037 -0.1692883
-0.5268508 -0.07972616 0.17016557 -0.015094205 -0.16809733 0.2255094 0.018818744 -0.22739203
0.23383433 0.2656996 -0.16176772 0.10952827 0.08715831 0.221924 -0.11996048 0.14633228
0.17964686 -0.026590936 0.15998769 -0.35448372 -0.038756482 0.17376272 -0.45542973 0.24834315
0.36689186 0.5632727 -0.36589208 0.034145854 0.15391591 -0.17314416 -0.13245963 -0.06745461
-0.13314217 -0.23572437 -0.026774853 0.021489063 0.046598196 -0.15553425 -0.032799575 0.41246098
-0.12665708 -0.091916755 0.20708923 0.26408213 0.35699493 -0.060105953 -0.07642508 -0.22607338
0.0037298626 -0.3175292 -0.026655084 -0.1773341 -0.16723217 0.22099406 -0.2547332 0.19424671
0.0017390477 -0.027313763 0.008248982 0.088247105 0.018385157 0.0077914544 -0.038602613 -0.012409253
0.015959904 0.01566594 0.026497377 0.007706543 0.0439863 -0.14318366 0.014764115 -0.039035626
-0.07343432 0.02053177 0.06738903 0.10388095 0.04429786 -0.002675379 0.016577076 0.09381197
0.047677908 0.031819783 0.122032255 0.07049914 0.021953465 0.01907499 0.0020410093 0.038399074
-0.18519808 -0.004777339 0.051942904 -0.07087804 -0.06192717 0.037288018 0.0057133306 0.05709243
0.045193464 -0.014367264 -0.026291108 -0.018887253 0.010465109 -0.044371918 0.024440322 -0.01894867
0.11321464 -0.0019138737 0.23268823 0.05802626 0.07678025 0.049382593 -0.022611428 0.014429149
0.04393866 -0.0087309275 0.14559129 -0.17187633 -0.037264485 0.18949366 0.17125379 0.06527898
00000000: 3c94 cfbc b0e7 7e3e f044 13be 351e 1ebd
00000010: a75c a1be 98e9 89be af21 f1be 1b7e 503e
00000020: 39eb c93c 9eaa abbe b6a5 8b3d 099d f83d
00000030: 682d 10bf 00ac c3be b887 983c a5c2 0c3e
00000040: c9d0 2ebc 74a7 cb3e 27ed 9f3d 57f1 8e3d
00000050: 3d52 573e 5be5 bf3e 6499 1b3d c2b8 7bbc
00000060: 0a83 6c3d f3e3 1ebe cef2 f73d 41fa 1b3e
00000070: 3e09 ffbc a52c 183d 1ccb 983e ad39 80bd
00000080: 48dd 13ba b28c 4b3e 0521 cf3a 6c03 8b3a
00000090: b957 863e 16f8 69bd e2a8 113e dd0d 893d
000000a0: ba48 833e 6f6d 6abe 9b05 473d d62e 2abe
000000b0: 0cc8 d3bd 43b3 1abe 3980 96bd 0163 3ebe
000000c0: 5f90 823e eeb7 013f c584 4cbd 8214 a5bd
000000d0: 73d5 9e3d f33b a8bd 091c fdbd c7ff 4cbe
000000e0: 01d9 b83e f7b6 efbc 9d44 b4be 2581 9fbd
000000f0: 2e58 21be e741 573e 633f c5bc 913f a5bd
00000100: 64a5 c93d aae4 1f3e 3882 433b 2046 553d
00000110: 2063 fc3c 20dc e93d f839 dabd e632 c2bd
00000120: 92f4 c1be b8aa f63d 44e3 c6bd 91f5 96bd
00000130: 6973 223c 676d 1e3d 10c6 ac3e 6ad1 4c3e
00000140: fb53 4cbe 783c 0bbe c899 6ebd ca76 5a3d
00000150: 89c9 b1bc 438c 3cbe f8ed 66bd cff1 3f3e
00000160: 6dce b73e 3947 99bd 265b 36bd 4b36 b83d
00000170: 7de2 ebba 83f7 223e f98e 23be 787e 88be
00000180: c619 3f3e 4739 943d 259a 54be e0fe dabd
00000190: 3454 343e 36cc ef3d 6ac7 14bd 7793 3c3e
000001a0: 53ad a7be ee24 443c 80c8 eabc bce8 bb3d
000001b0: 257b 4c3e e383 b1bc 00e1 0bbe 044a ba3d
000001c0: 5bae af3e 7489 29be 2144 c1bd d2f2 9cbd
000001d0: ac2e debd 99e7 613c 4f57 afbc 8bf2 25be
000001e0: 9435 5abe e50a 86be 1cdc 89be 2fe0 e5bd
000001f0: 81c1 903e 1591 8bbe e89a f2bd 2280 f93d
00000200: 6c51 2f3e a129 80be c832 993e 905b 983d
00000210: 99ff a23e 8ae3 e13d 6e87 c13b ea59 2dbe
00000220: b2df 06bf 7847 a3bd e23f 2e3e af4d 77bc
00000230: b521 2cbe f0eb 663e c429 9a3c 75d9 68be
00000240: 4472 6f3e c709 883e 70a6 25be 5c50 e03d
00000250: 0e80 b23d 0c40 633e d7ad f5bd 21d8 153e
00000260: 59f5 373e 3cd5 d9bc d0d3 233e e47e b5be
00000270: 1ebf 1ebd dbee 313e 162e e9be ab4d 7e3e
00000280: 40d9 bb3e a432 103f 3556 bbbe 86dc 0b3d
00000290: 229c 1d3e b44c 31be 7fa3 07be a425 8abd
000002a0: 6c56 08be bb61 71be f056 dbbc d509 b03c
000002b0: c0dd 3e3d 5f44 1fbe d958 06bd 162e d33e
000002c0: 65b2 01be da3e bcbd 330f 543e c635 873e
000002d0: 0ac8 b63e a931 76bd c184 9cbd c87f 67be
000002e0: b670 743b 3093 a2be c35b dabc 1297 35be
000002f0: e93e 2bbe 444c 623e 646c 82be 9ce8 463e
00000300: c2f0 e33a 1dc1 dfbc bd26 073c e6ba b43d
00000310: 789c 963c 754f ff3b c61d 1ebd 2e50 4bbc
00000320: 58be 823c db55 803c 0711 d93c 2b87 fc3b
00000330: fa2a 343d bd9e 12be 30e5 713c d2e3 1fbd
00000340: bc64 96bd 3e32 a83c 4203 8a3d 89bf d43d
00000350: ac71 353d 6955 2fbb a6cc 873c 7d20 c03d
00000360: e949 433d 7655 023d 0cec f93d da61 903d
00000370: c1d7 b33c 2743 9c3c 74c2 053b 5948 1d3d
00000380: 91a4 3dbe 398b 9cbb 15c2 543d 8128 91bd
00000390: 58a7 7dbd 52bb 183d e436 bb3b c0d9 693d
000003a0: c81c 393d ac64 6bbc 7360 d7bc 71b9 9abc
000003b0: d975 2b3c 54bf 35bd 1237 c83c 3e3a 9bbc
000003c0: 14dd e73d f2da faba d345 6e3e f2ac 6d3d
000003d0: f73e 9d3d 6745 4a3d 9a3b b9bc 3d68 6c3c
000003e0: 06f9 333d 2a0c 0fbc e215 153e 5900 30be
000003f0: a5a2 18bd a00a 423e 275d 2f3e fcb0 853d

dense_2/MatMul_bias f4 [14]
-0.032563943 -0.19094118 0.13624027 0.04717996 -0.16052645 -0.78102255 0.2272285 0.4558106
-0.9664383 -0.063818954 0.13553232 -0.07431385 0.21185689 0.11532587
00000000: c561 05bd 1686 43be 9282 0b3e c63f 413d
00000010: 0c61 24be 18f1 47bf 97ae 683e 0260 e93e
00000020: 8068 77bf 83b3 82bd fcc8 0a3e dc31 98bd
00000030: 03f1 583e f82f ec3d

dense_2/kernel/transpose f4 [14, 2048]
-0.13052848 -0.13509075 0.21930377 0.08591152 -0.0014276938 0.0670105 -0.06940145 -0.15526408
0.15552586 -0.20763591 -0.045544494 -0.03305255 0.057127174 -0.013946829 -0.18521425 0.08997265
-0.047533404 -0.09123355 0.019040281 -0.16065063 0.07870914 0.020497745 0.12825894 0.22399203
-0.24025024 0.3038847 -0.018693805 -0.007877703 -0.006116028 -0.03711427 -0.08440058 -0.3362837
-0.022652095 0.18378505 -0.34209427 0.015544118 -0.01907618 -0.013759517 0.057936393 0.10937283
0.08971525 0.048478115 -0.010671874 -0.011564525 -0.046992797 -0.16036895 -0.14922214 0.18118295
0.051235203 0.017797027 -0.28394586 0.063570134 -0.015358454 -0.0042492766 0.0013576512 -0.0962352
-0.09718204 0.012409244 -0.031528298 -0.10179604 -0.03568397 -0.15303078 -0.07665796 0.14060315
-0.10992987 -0.0081447605 -0.18718542 -0.074831896 0.12163504 -0.06512303 0.08524744 -0.2947082
0.010280176 -0.14941631 -0.33288917 0.004088572 -0.07841287 -0.03444872 -0.18479668 -0.03680105
-0.0032563556 0.18469463 0.12604952 0.043493774 0.117802456 0.12983799 0.1409108 -0.021414874
-0.0043382463 0.108830504 0.022868108 -0.12164227 0.013847909 0.026263837 -0.090885065 -0.0072487113
-0.14675121 -0.14691117 -0.031399753 0.14879714 -0.1554864 -0.0081240395 -0.05770314 0.059299212
0.2093319 0.018517055 -0.17038265 -0.06776622 0.12348916 0.1042975 -0.23154615 0.04303442
-0.11030455 -0.24218202 -0.067130014 -0.11809191 0.056590326 0.04067599 0.06455304 -0.070105076
-0.23099914 0.09964751 0.016499309 0.103343 -0.0049188654 0.009634445 -0.084198095 -0.020867832
-0.05695065 -0.13536184 -0.071877554 -0.1542925 0.18196873 0.0064499537 0.06376584 -0.067075044
0.25386316 0.074194446 0.030395472 0.08080942 -0.10534777 0.13243933 -0.18224773 0.053502332
0.10335164 -0.1197522 0.043074183 0.00843271 0.0022150506 0.0094156135 0.16198021 -0.03222702
0.07093043 0.16448113 -0.06373667 0.017565029 -0.13987151 -0.01004735 -0.07339645 -0.10146619
0.18182358 0.032678377 -0.021272443 -0.13568301 -0.049069267 0.037683878 0.11604331 0.025984308
0.20616414 0.30552655 -0.0047605117 -0.15074417 0.041190054 0.105546296 -0.0009078466 -0.018860837
-0.04009086 -0.034290582 -0.24278328 -0.021463303 0.14215204 -0.13632894 -0.018293513 -0.07565659
0.03630584 -0.090373226 -0.03894685 0.19314517 -0.01833626 0.0038727606 -0.10037415 0.007095137
0.18149774 -0.10957235 0.016164687 0.102004625 0.018037356 0.054674085 0.033126622 -0.03201356
0.019925896 0.03365077 -0.0084589785 0.045898598 -0.1458261 -0.018095467 0.21578522 -0.023217734
-0.21460304 0.019258417 -0.021222664 -0.31015393 -0.10077016 0.023972634 -0.12861826 0.021236705
-0.26124498 -0.054531794 0.040623914 0.078824736 -0.018419517 0.0880156 -0.065236636 0.0068891095
-0.042536613 -0.11349987 0.03180467 0.06046882 0.15375727 -0.01654484 -0.0561977 0.04043628
0.11074125 0.052051887 0.02393158 0.063265845 -0.22142711 -0.14672814 0.21811175 0.0335965
-0.12633537 0.12803093 0.101315096 -0.07149605 -0.068048105 0.016562382 0.1285136 0.017178318
-0.0012478895 -0.08125069 -0.18429077 -0.052282557 0.055142097 0.045734096 0.23664773 0.07866275
00000000: 42a9 05be 3b55 0abe 2b91 603e 61f2 af3d
00000010: 7421 bbba cd3c 893d 5922 8ebd 8cfd 1ebe
00000020: 2c42 1f3e 829e 54be dd8c 3abd 1c62 07bd
00000030: 2ffe 693d 3e81 64bc cea8 3dbe 9543 b83d
00000040: 63b2 42bd a8d8 babd 5dfa 9b3c 9981 24be
00000050: 4232 a13d e3ea a73c 5056 033e 2b5e 653e
00000060: 2904 76be c796 9b3e c023 99bc 7b11 01bc
00000070: f668 c8bb 2205 18bd 36da acbd 612d acbe
00000080: e390 b9bc 2632 3c3e fb26 afbe c2ac 7e3c
00000090: a645 9cbc 996f 61bc b64e 6d3d ddfe df3d
000000a0: a1bc b73d fd90 463d 15d9 2ebc 2279 3dbc
000000b0: 857b 40bd c237 24be b0cd 18be 0688 393e
000000c0: 01dc 513d 12cb 913c 5a61 91be 0f31 823d
000000d0: 06a2 7bbc 843d 8bbb 37f3 b13a f616 c5bd
000000e0: 6107 c7bd 2450 4b3c d123 01bd 717a d0bd
000000f0: 5b29 12bd 1ab4 1cbe d9fe 9cbd 46fa 0f3e
00000100: e922 e1bd 9a71 05bc 89ad 3fbe 7741 99bd
00000110: cb1b f93d 395f 85bd 3696 ae3d fee3 96be
00000120: 2f6e 283c 9700 19be 7370 aabe 6ef9 853b
00000130: ed96 a0bd 1a1a 0dbd 573b 3dbe b3bc 16bd
00000140: 9568 55bb 9720 3d3e 2013 013e 8726 323d
00000150: 6a42 f13d 40f4 043e ec4a 103e 3f6e afbc
00000160: d927 8ebb 87e2 de3d e655 bb3c 951f f9bd
00000170: 57e2 623c 4227 d73c f321 babd 9986 edbb
00000180: f345 16be e26f 16be 079d 00bd 475e 183e
00000190: d437 1fbe b11a 05bc 215a 6cbd bbe3 723d
000001a0: 1a5b 563e 14b1 973c ca78 2ebe 04c9 8abd
000001b0: e2e7 fc3d ed99 d53d 6f1a 6dbe dc44 303d
000001c0: 5ae7 e1bd 90fe 77be 767b 89bd 2cda f1bd
000001d0: 42cb 673d de9b 263d 6234 843d 4093 8fbd
000001e0: 0a8b 6cbe fe13 cc3d 8f29 873c 7fa5 d33d
000001f0: 6f2e a1bb cbd9 1d3c 0d70 acbd 04f3 aabc
00000200: 1645 69bd 4b9c 0abe 8a34 93bd dafe 1dbe
00000210: 0356 3a3e 225a d33b aa97 823d a45e 89bd
00000220: 5afa 813e 42f3 973d edff f83c 697f a53d
00000230: 92c0 d7bd 2d9e 073e 269f 3abe 4325 5b3d
00000240: 06aa d33d a440 f5bd 8e6e 303d 5929 0a3c
00000250: 622a 113b f243 1a3c 24de 253e 7b00 04bd
00000260: f943 913d be6d 283e 5f88 82bd 89e4 8f3c
00000270: 7a3a 0fbe a49d 24bc e150 96bd 81cd cfbd
00000280: f62f 3a3e c3d9 053d 8c43 aebc 7df0 0abe
00000290: dbfc 48bd 695a 1a3d 1da8 ed3d 0bdd d43c
000002a0: b11c 533e fa6d 9c3e 11fe 9bbb ae5c 1abe
000002b0: e7b6 283d a828 d83d 8efc 6dba 0b82 9abc
000002c0: 5036 24bd 4874 0cbd 2e9c 78be cfd3 afbc
000002d0: 4e90 113e d099 0bbe 47dc 95bc d8f1 9abd
000002e0: 6fb5 143d 9915 b9bd bb86 1fbd d9c7 453e
000002f0: ed35 96bc 24ce 7d3b f690 cdbd 537e e83b
00000300: 8bda 393e 7867 e0bd ce6b 843c cde7 d03d
00000310: 14c3 933c eff1 5f3d c8af 073d a720 03bd
00000320: a23b a33c 64d5 093d 8797 0abc 2b00 3c3d
00000330: 7053 15be f23c 94bc cdf6 5c3e 1e33 bebc
00000340: e6c0 5bbe d4c3 9d3c 27db adbc 7fcc 9ebe
00000350: 9660 cebd 4262 c43c 81b4 03be 99f8 ad3c
00000360: e7c1 85be bb5c 5fbd 4365 263d dd6e a13d
00000370: 87e4 96bc 8641 b43d c99a 85bd 0abe e13b
00000380: df3a 2ebd 9f72 e8bd 9d45 023d 27ae 773d
00000390: 8c72 1d3e 0b89 87bc 8f2f 66bd 83a0 253d
000003a0: 4fcc e23d 5c34 553d 290c c43c 8691 813d
000003b0: cabd 62be e73f 16be b058 5f3e 7c9c 093d
000003c0: 0f5e 01be 8a1a 033e 4a7e cf3d 856c 92bd
000003d0: ce5c 8bbd d5ad 873c 1299 033e 8bb9 8c3c
000003e0: 3990 a3ba c366 a6bd b8b6 3cbe 3c26 56bd
000003f0: aedc 613d ad53 3b3d c853 723e f019 a13d
